…
2026-01-26 04:47:41.845 | INFO     | finetuning_progressive_v3_exp:get_model:109 -   sep_scale: 0.12 -> 0.2
2026-01-26 04:47:41.846 | INFO     | finetuning_progressive_v3_exp:get_model:110 -   orth_scale: 0.08 -> 0.02
2026-01-26 04:47:41.846 | INFO     | finetuning_progressive_v3_exp:get_model:111 -   local_consistency_scale: 0.05 -> 0.1
2026-01-26 04:47:41.846 | INFO     | finetuning_progressive_v3_exp:get_model:112 -   margin: 0.3 -> 0.4
2026-01-26 04:47:41.855 | INFO     | __main__:main_worker:256 - Illustration of model strcutures:
Model(
  (model): main_model_enhanced(
    (downsample_layers): ModuleList(
      (0): Sequential(
        (0): Conv2d(3, 96, kernel_size=(4, 4), stride=(4, 4))
        (1): LayerNorm()
      )
      (1): Sequential(
        (0): LayerNorm()
        (1): Conv2d(96, 192, kernel_size=(2, 2), stride=(2, 2))
      )
      (2): Sequential(
        (0): LayerNorm()
        (1): Conv2d(192, 384, kernel_size=(2, 2), stride=(2, 2))
      )
      (3): Sequential(
        (0): LayerNorm()
        (1): Conv2d(384, 768, kernel_size=(2, 2), stride=(2, 2))
      )
    )
    (stages): ModuleList(
      (0): Sequential(
        (0): Block(
          (dwconv): Conv2d(96, 96, kernel_size=(7, 7), stride=(1, 1), padding=(3, 3), groups=96)
          (norm): LayerNorm()
          (pwconv1): Linear(in_features=96, out_features=384, bias=True)
          (act): GELU(approximate='none')
          (pwconv2): Linear(in_features=384, out_features=96, bias=True)
          (drop_path): Identity()
        )
        (1): Block(
          (dwconv): Conv2d(96, 96, kernel_size=(7, 7), stride=(1, 1), padding=(3, 3), groups=96)
          (norm): LayerNorm()
          (pwconv1): Linear(in_features=96, out_features=384, bias=True)
          (act): GELU(approximate='none')
          (pwconv2): Linear(in_features=384, out_features=96, bias=True)
          (drop_path): Identity()
        )
        (2): Block(
          (dwconv): Conv2d(96, 96, kernel_size=(7, 7), stride=(1, 1), padding=(3, 3), groups=96)
          (norm): LayerNorm()
          (pwconv1): Linear(in_features=96, out_features=384, bias=True)
          (act): GELU(approximate='none')
          (pwconv2): Linear(in_features=384, out_features=96, bias=True)
          (drop_path): Identity()
        )
      )
      (1): Sequential(
        (0): Block(
          (dwconv): Conv2d(192, 192, kernel_size=(7, 7), stride=(1, 1), padding=(3, 3), groups=192)
          (norm): LayerNorm()
          (pwconv1): Linear(in_features=192, out_features=768, bias=True)
          (act): GELU(approximate='none')
          (pwconv2): Linear(in_features=768, out_features=192, bias=True)
          (drop_path): Identity()
        )
        (1): Block(
          (dwconv): Conv2d(192, 192, kernel_size=(7, 7), stride=(1, 1), padding=(3, 3), groups=192)
          (norm): LayerNorm()
          (pwconv1): Linear(in_features=192, out_features=768, bias=True)
          (act): GELU(approximate='none')
          (pwconv2): Linear(in_features=768, out_features=192, bias=True)
          (drop_path): Identity()
        )
        (2): Block(
          (dwconv): Conv2d(192, 192, kernel_size=(7, 7), stride=(1, 1), padding=(3, 3), groups=192)
          (norm): LayerNorm()
          (pwconv1): Linear(in_features=192, out_features=768, bias=True)
          (act): GELU(approximate='none')
          (pwconv2): Linear(in_features=768, out_features=192, bias=True)
          (drop_path): Identity()
        )
      )
      (2): Sequential(
        (0): Block(
          (dwconv): Conv2d(384, 384, kernel_size=(7, 7), stride=(1, 1), padding=(3, 3), groups=384)
          (norm): LayerNorm()
          (pwconv1): Linear(in_features=384, out_features=1536, bias=True)
          (act): GELU(approximate='none')
          (pwconv2): Linear(in_features=1536, out_features=384, bias=True)
          (drop_path): Identity()
        )
        (1): Block(
          (dwconv): Conv2d(384, 384, kernel_size=(7, 7), stride=(1, 1), padding=(3, 3), groups=384)
          (norm): LayerNorm()
          (pwconv1): Linear(in_features=384, out_features=1536, bias=True)
          (act): GELU(approximate='none')
          (pwconv2): Linear(in_features=1536, out_features=384, bias=True)
          (drop_path): Identity()
        )
        (2): Block(
          (dwconv): Conv2d(384, 384, kernel_size=(7, 7), stride=(1, 1), padding=(3, 3), groups=384)
          (norm): LayerNorm()
          (pwconv1): Linear(in_features=384, out_features=1536, bias=True)
          (act): GELU(approximate='none')
          (pwconv2): Linear(in_features=1536, out_features=384, bias=True)
          (drop_path): Identity()
        )
        (3): Block(
          (dwconv): Conv2d(384, 384, kernel_size=(7, 7), stride=(1, 1), padding=(3, 3), groups=384)
          (norm): LayerNorm()
          (pwconv1): Linear(in_features=384, out_features=1536, bias=True)
          (act): GELU(approximate='none')
          (pwconv2): Linear(in_features=1536, out_features=384, bias=True)
          (drop_path): Identity()
        )
        (4): Block(
          (dwconv): Conv2d(384, 384, kernel_size=(7, 7), stride=(1, 1), padding=(3, 3), groups=384)
          (norm): LayerNorm()
          (pwconv1): Linear(in_features=384, out_features=1536, bias=True)
          (act): GELU(approximate='none')
          (pwconv2): Linear(in_features=1536, out_features=384, bias=True)
          (drop_path): Identity()
        )
        (5): Block(
          (dwconv): Conv2d(384, 384, kernel_size=(7, 7), stride=(1, 1), padding=(3, 3), groups=384)
          (norm): LayerNorm()
          (pwconv1): Linear(in_features=384, out_features=1536, bias=True)
          (act): GELU(approximate='none')
          (pwconv2): Linear(in_features=1536, out_features=384, bias=True)
          (drop_path): Identity()
        )
        (6): Block(
          (dwconv): Conv2d(384, 384, kernel_size=(7, 7), stride=(1, 1), padding=(3, 3), groups=384)
          (norm): LayerNorm()
          (pwconv1): Linear(in_features=384, out_features=1536, bias=True)
          (act): GELU(approximate='none')
          (pwconv2): Linear(in_features=1536, out_features=384, bias=True)
          (drop_path): Identity()
        )
        (7): Block(
          (dwconv): Conv2d(384, 384, kernel_size=(7, 7), stride=(1, 1), padding=(3, 3), groups=384)
          (norm): LayerNorm()
          (pwconv1): Linear(in_features=384, out_features=1536, bias=True)
          (act): GELU(approximate='none')
          (pwconv2): Linear(in_features=1536, out_features=384, bias=True)
          (drop_path): Identity()
        )
        (8): Block(
          (dwconv): Conv2d(384, 384, kernel_size=(7, 7), stride=(1, 1), padding=(3, 3), groups=384)
          (norm): LayerNorm()
          (pwconv1): Linear(in_features=384, out_features=1536, bias=True)
          (act): GELU(approximate='none')
          (pwconv2): Linear(in_features=1536, out_features=384, bias=True)
          (drop_path): Identity()
        )
      )
      (3): Sequential(
        (0): Block(
          (dwconv): Conv2d(768, 768, kernel_size=(7, 7), stride=(1, 1), padding=(3, 3), groups=768)
          (norm): LayerNorm()
          (pwconv1): Linear(in_features=768, out_features=3072, bias=True)
          (act): GELU(approximate='none')
          (pwconv2): Linear(in_features=3072, out_features=768, bias=True)
          (drop_path): Identity()
        )
        (1): Block(
          (dwconv): Conv2d(768, 768, kernel_size=(7, 7), stride=(1, 1), padding=(3, 3), groups=768)
          (norm): LayerNorm()
          (pwconv1): Linear(in_features=768, out_features=3072, bias=True)
          (act): GELU(approximate='none')
          (pwconv2): Linear(in_features=3072, out_features=768, bias=True)
          (drop_path): Identity()
        )
        (2): Block(
          (dwconv): Conv2d(768, 768, kernel_size=(7, 7), stride=(1, 1), padding=(3, 3), groups=768)
          (norm): LayerNorm()
          (pwconv1): Linear(in_features=768, out_features=3072, bias=True)
          (act): GELU(approximate='none')
          (pwconv2): Linear(in_features=3072, out_features=768, bias=True)
          (drop_path): Identity()
        )
      )
    )
    (conv_norm): LayerNorm((768,), eps=1e-06, elementwise_affine=True)
    (patch_embed): PatchEmbed(
      (proj): Conv2d(3, 96, kernel_size=(4, 4), stride=(4, 4))
      (norm): LayerNorm((96,), eps=1e-05, elementwise_affine=True)
    )
    (pos_drop): Dropout(p=0, inplace=False)
    (meta_tokenlize): PatchEmbed(
      (proj): Conv2d(96, 768, kernel_size=(16, 16), stride=(16, 16))
      (norm): Identity()
    )
    (layers1): BasicLayer(
      (blocks): ModuleList(
        (0): SwinTransformerBlock(
          (norm1): LayerNorm((96,), eps=1e-05, elementwise_affine=True)
          (attn): WindowAttention(
            (qkv): Linear(in_features=96, out_features=288, bias=True)
            (attn_drop): Dropout(p=0, inplace=False)
            (proj): Linear(in_features=96, out_features=96, bias=True)
            (proj_drop): Dropout(p=0, inplace=False)
            (softmax): Softmax(dim=-1)
          )
          (drop_path): Identity()
          (norm2): LayerNorm((96,), eps=1e-05, elementwise_affine=True)
          (mlp): Mlp(
            (fc1): Linear(in_features=96, out_features=384, bias=True)
            (act): GELU(approximate='none')
            (drop1): Dropout(p=0, inplace=False)
            (fc2): Linear(in_features=384, out_features=96, bias=True)
            (drop2): Dropout(p=0, inplace=False)
          )
        )
        (1): SwinTransformerBlock(
          (norm1): LayerNorm((96,), eps=1e-05, elementwise_affine=True)
          (attn): WindowAttention(
            (qkv): Linear(in_features=96, out_features=288, bias=True)
            (attn_drop): Dropout(p=0, inplace=False)
            (proj): Linear(in_features=96, out_features=96, bias=True)
            (proj_drop): Dropout(p=0, inplace=False)
            (softmax): Softmax(dim=-1)
          )
          (drop_path): DropPath()
          (norm2): LayerNorm((96,), eps=1e-05, elementwise_affine=True)
          (mlp): Mlp(
            (fc1): Linear(in_features=96, out_features=384, bias=True)
            (act): GELU(approximate='none')
            (drop1): Dropout(p=0, inplace=False)
            (fc2): Linear(in_features=384, out_features=96, bias=True)
            (drop2): Dropout(p=0, inplace=False)
          )
        )
      )
    )
    (layers2): BasicLayer(
      (blocks): ModuleList(
        (0-1): 2 x SwinTransformerBlock(
          (norm1): LayerNorm((192,), eps=1e-05, elementwise_affine=True)
          (attn): WindowAttention(
            (qkv): Linear(in_features=192, out_features=576, bias=True)
            (attn_drop): Dropout(p=0, inplace=False)
            (proj): Linear(in_features=192, out_features=192, bias=True)
            (proj_drop): Dropout(p=0, inplace=False)
            (softmax): Softmax(dim=-1)
          )
          (drop_path): DropPath()
          (norm2): LayerNorm((192,), eps=1e-05, elementwise_affine=True)
          (mlp): Mlp(
            (fc1): Linear(in_features=192, out_features=768, bias=True)
            (act): GELU(approximate='none')
            (drop1): Dropout(p=0, inplace=False)
            (fc2): Linear(in_features=768, out_features=192, bias=True)
            (drop2): Dropout(p=0, inplace=False)
          )
        )
      )
      (downsample): PatchMerging(
        (reduction): Linear(in_features=384, out_features=192, bias=False)
        (norm): LayerNorm((384,), eps=1e-05, elementwise_affine=True)
      )
    )
    (layers3): BasicLayer(
      (blocks): ModuleList(
        (0-5): 6 x SwinTransformerBlock(
          (norm1): LayerNorm((384,), eps=1e-05, elementwise_affine=True)
          (attn): WindowAttention(
            (qkv): Linear(in_features=384, out_features=1152, bias=True)
            (attn_drop): Dropout(p=0, inplace=False)
            (proj): Linear(in_features=384, out_features=384, bias=True)
            (proj_drop): Dropout(p=0, inplace=False)
            (softmax): Softmax(dim=-1)
          )
          (drop_path): DropPath()
          (norm2): LayerNorm((384,), eps=1e-05, elementwise_affine=True)
          (mlp): Mlp(
            (fc1): Linear(in_features=384, out_features=1536, bias=True)
            (act): GELU(approximate='none')
            (drop1): Dropout(p=0, inplace=False)
            (fc2): Linear(in_features=1536, out_features=384, bias=True)
            (drop2): Dropout(p=0, inplace=False)
          )
        )
      )
      (downsample): PatchMerging(
        (reduction): Linear(in_features=768, out_features=384, bias=False)
        (norm): LayerNorm((768,), eps=1e-05, elementwise_affine=True)
      )
    )
    (layers4): BasicLayer(
      (blocks): ModuleList(
        (0-1): 2 x SwinTransformerBlock(
          (norm1): LayerNorm((768,), eps=1e-05, elementwise_affine=True)
          (attn): WindowAttention(
            (qkv): Linear(in_features=768, out_features=2304, bias=True)
            (attn_drop): Dropout(p=0, inplace=False)
            (proj): Linear(in_features=768, out_features=768, bias=True)
            (proj_drop): Dropout(p=0, inplace=False)
            (softmax): Softmax(dim=-1)
          )
          (drop_path): DropPath()
          (norm2): LayerNorm((768,), eps=1e-05, elementwise_affine=True)
          (mlp): Mlp(
            (fc1): Linear(in_features=768, out_features=3072, bias=True)
            (act): GELU(approximate='none')
            (drop1): Dropout(p=0, inplace=False)
            (fc2): Linear(in_features=3072, out_features=768, bias=True)
            (drop2): Dropout(p=0, inplace=False)
          )
        )
      )
      (downsample): PatchMerging(
        (reduction): Linear(in_features=1536, out_features=768, bias=False)
        (norm): LayerNorm((1536,), eps=1e-05, elementwise_affine=True)
      )
    )
    (norm): LayerNorm((768,), eps=1e-05, elementwise_affine=True)
    (avgpool): AdaptiveAvgPool1d(output_size=1)
    (head): HeadOptimal(
      (proj): Sequential(
        (0): Linear(in_features=768, out_features=768, bias=True)
        (1): LayerNorm((768,), eps=1e-05, elementwise_affine=True)
        (2): Dropout(p=0.1, inplace=False)
      )
      (proto_manager): DynamicPrototypeManagerOptimal()
      (mixed_attn): MixedAttentionBlockOptimal(
        (cross_attn): MultiheadAttention(
          (out_proj): NonDynamicallyQuantizableLinear(in_features=768, out_features=768, bias=True)
        )
        (self_attn): MultiheadAttention(
          (out_proj): NonDynamicallyQuantizableLinear(in_features=768, out_features=768, bias=True)
        )
        (light_attn): MultiheadAttention(
          (out_proj): NonDynamicallyQuantizableLinear(in_features=768, out_features=768, bias=True)
        )
        (norm1): LayerNorm((768,), eps=1e-05, elementwise_affine=True)
        (norm2): LayerNorm((768,), eps=1e-05, elementwise_affine=True)
        (norm3): LayerNorm((768,), eps=1e-05, elementwise_affine=True)
        (dropout): Dropout(p=0.1, inplace=False)
        (gate): Sequential(
          (0): Linear(in_features=2304, out_features=768, bias=True)
          (1): GELU(approximate='none')
          (2): Linear(in_features=768, out_features=3, bias=True)
        )
      )
      (ffn): Sequential(
        (0): Linear(in_features=768, out_features=3072, bias=True)
        (1): GELU(approximate='none')
        (2): Dropout(p=0.1, inplace=False)
        (3): Linear(in_features=3072, out_features=768, bias=True)
        (4): Dropout(p=0.1, inplace=False)
      )
      (ffn_norm): LayerNorm((768,), eps=1e-05, elementwise_affine=True)
      (proto_loss_fn): OptimalPrototypeLoss()
    )
    (fu1): MHF_block_v2(
      (att_conv): Sequential(
        (0): Conv2d(192, 2, kernel_size=(1, 1), stride=(1, 1))
        (1): Sigmoid()
      )
      (maxpool): AdaptiveMaxPool2d(output_size=1)
      (avgpool): AdaptiveAvgPool2d(output_size=1)
      (se): Sequential(
        (0): Conv2d(96, 6, kernel_size=(1, 1), stride=(1, 1), bias=False)
        (1): ReLU()
        (2): Conv2d(6, 96, kernel_size=(1, 1), stride=(1, 1), bias=False)
      )
      (sigmoid): Sigmoid()
      (spatial): Conv(
        (conv): Conv2d(2, 1, kernel_size=(7, 7), stride=(1, 1), padding=(3, 3), bias=False)
        (bn): BatchNorm2d(1, eps=1e-05, momentum=0.1, affine=True, track_running_stats=True)
      )
      (W_x): Conv(
        (conv): Conv2d(96, 96, kernel_size=(1, 1), stride=(1, 1))
        (bn): BatchNorm2d(96, eps=1e-05, momentum=0.1, affine=True, track_running_stats=True)
      )
      (W_g): Conv(
        (conv): Conv2d(96, 96, kernel_size=(1, 1), stride=(1, 1))
        (bn): BatchNorm2d(96, eps=1e-05, momentum=0.1, affine=True, track_running_stats=True)
      )
      (Avg): AvgPool2d(kernel_size=2, stride=2, padding=0)
      (norm1): LayerNorm()
      (norm2): LayerNorm()
      (chan): Conv(
        (conv): Conv2d(48, 96, kernel_size=(1, 1), stride=(1, 1))
        (relu): ReLU(inplace=True)
        (bn): BatchNorm2d(96, eps=1e-05, momentum=0.1, affine=True, track_running_stats=True)
      )
      (W): Conv(
        (conv): Conv2d(192, 96, kernel_size=(3, 3), stride=(1, 1), padding=(1, 1))
        (relu): ReLU(inplace=True)
        (bn): BatchNorm2d(96, eps=1e-05, momentum=0.1, affine=True, track_running_stats=True)
      )
      (gelu): GELU(approximate='none')
      (residual): Residual(
        (relu): ReLU(inplace=True)
        (bn1): BatchNorm2d(288, eps=1e-05, momentum=0.1, affine=True, track_running_stats=True)
        (conv1): Conv(
          (conv): Conv2d(288, 48, kernel_size=(1, 1), stride=(1, 1))
        )
        (bn2): BatchNorm2d(48, eps=1e-05, momentum=0.1, affine=True, track_running_stats=True)
        (conv2): Conv(
          (conv): Conv2d(48, 48, kernel_size=(3, 3), stride=(1, 1), padding=(1, 1))
        )
        (bn3): BatchNorm2d(48, eps=1e-05, momentum=0.1, affine=True, track_running_stats=True)
        (conv3): Conv(
          (conv): Conv2d(48, 96, kernel_size=(1, 1), stride=(1, 1))
        )
        (skip_layer): Conv(
          (conv): Conv2d(288, 96, kernel_size=(1, 1), stride=(1, 1))
        )
      )
      (dropout): Dropout2d(p=0.0, inplace=False)
      (enhancement): EnhancementModuleLite(
        (channel_att): Sequential(
          (0): AdaptiveAvgPool2d(output_size=1)
          (1): Conv2d(96, 8, kernel_size=(1, 1), stride=(1, 1), bias=False)
          (2): ReLU(inplace=True)
          (3): Conv2d(8, 96, kernel_size=(1, 1), stride=(1, 1), bias=False)
          (4): Sigmoid()
        )
        (spatial_att): Sequential(
          (0): Conv2d(2, 1, kernel_size=(3, 3), stride=(1, 1), padding=(1, 1), bias=False)
          (1): Sigmoid()
        )
      )
    )
    (fu2): MHF_block_v2(
      (att_conv): Sequential(
        (0): Conv2d(384, 2, kernel_size=(1, 1), stride=(1, 1))
        (1): Sigmoid()
      )
      (maxpool): AdaptiveMaxPool2d(output_size=1)
      (avgpool): AdaptiveAvgPool2d(output_size=1)
      (se): Sequential(
        (0): Conv2d(192, 12, kernel_size=(1, 1), stride=(1, 1), bias=False)
        (1): ReLU()
        (2): Conv2d(12, 192, kernel_size=(1, 1), stride=(1, 1), bias=False)
      )
      (sigmoid): Sigmoid()
      (spatial): Conv(
        (conv): Conv2d(2, 1, kernel_size=(7, 7), stride=(1, 1), padding=(3, 3), bias=False)
        (bn): BatchNorm2d(1, eps=1e-05, momentum=0.1, affine=True, track_running_stats=True)
      )
      (W_x): Conv(
        (conv): Conv2d(192, 192, kernel_size=(1, 1), stride=(1, 1))
        (bn): BatchNorm2d(192, eps=1e-05, momentum=0.1, affine=True, track_running_stats=True)
      )
      (W_g): Conv(
        (conv): Conv2d(192, 192, kernel_size=(1, 1), stride=(1, 1))
        (bn): BatchNorm2d(192, eps=1e-05, momentum=0.1, affine=True, track_running_stats=True)
      )
      (Avg): AvgPool2d(kernel_size=2, stride=2, padding=0)
      (norm1): LayerNorm()
      (norm2): LayerNorm()
      (chan): Conv(
        (conv): Conv2d(96, 192, kernel_size=(1, 1), stride=(1, 1))
        (relu): ReLU(inplace=True)
        (bn): BatchNorm2d(192, eps=1e-05, momentum=0.1, affine=True, track_running_stats=True)
      )
      (W): Conv(
        (conv): Conv2d(384, 192, kernel_size=(3, 3), stride=(1, 1), padding=(1, 1))
        (relu): ReLU(inplace=True)
        (bn): BatchNorm2d(192, eps=1e-05, momentum=0.1, affine=True, track_running_stats=True)
      )
      (gelu): GELU(approximate='none')
      (residual): Residual(
        (relu): ReLU(inplace=True)
        (bn1): BatchNorm2d(576, eps=1e-05, momentum=0.1, affine=True, track_running_stats=True)
        (conv1): Conv(
          (conv): Conv2d(576, 96, kernel_size=(1, 1), stride=(1, 1))
        )
        (bn2): BatchNorm2d(96, eps=1e-05, momentum=0.1, affine=True, track_running_stats=True)
        (conv2): Conv(
          (conv): Conv2d(96, 96, kernel_size=(3, 3), stride=(1, 1), padding=(1, 1))
        )
        (bn3): BatchNorm2d(96, eps=1e-05, momentum=0.1, affine=True, track_running_stats=True)
        (conv3): Conv(
          (conv): Conv2d(96, 192, kernel_size=(1, 1), stride=(1, 1))
        )
        (skip_layer): Conv(
          (conv): Conv2d(576, 192, kernel_size=(1, 1), stride=(1, 1))
        )
      )
      (dropout): Dropout2d(p=0.1, inplace=False)
      (enhancement): EnhancementModuleLite(
        (channel_att): Sequential(
          (0): AdaptiveAvgPool2d(output_size=1)
          (1): Conv2d(192, 12, kernel_size=(1, 1), stride=(1, 1), bias=False)
          (2): ReLU(inplace=True)
          (3): Conv2d(12, 192, kernel_size=(1, 1), stride=(1, 1), bias=False)
          (4): Sigmoid()
        )
        (spatial_att): Sequential(
          (0): Conv2d(2, 1, kernel_size=(3, 3), stride=(1, 1), padding=(1, 1), bias=False)
          (1): Sigmoid()
        )
      )
    )
    (fu3): MHF_block_v2(
      (att_conv): Sequential(
        (0): Conv2d(768, 2, kernel_size=(1, 1), stride=(1, 1))
        (1): Sigmoid()
      )
      (maxpool): AdaptiveMaxPool2d(output_size=1)
      (avgpool): AdaptiveAvgPool2d(output_size=1)
      (se): Sequential(
        (0): Conv2d(384, 24, kernel_size=(1, 1), stride=(1, 1), bias=False)
        (1): ReLU()
        (2): Conv2d(24, 384, kernel_size=(1, 1), stride=(1, 1), bias=False)
      )
      (sigmoid): Sigmoid()
      (spatial): Conv(
        (conv): Conv2d(2, 1, kernel_size=(7, 7), stride=(1, 1), padding=(3, 3), bias=False)
        (bn): BatchNorm2d(1, eps=1e-05, momentum=0.1, affine=True, track_running_stats=True)
      )
      (W_x): Conv(
        (conv): Conv2d(384, 384, kernel_size=(1, 1), stride=(1, 1))
        (bn): BatchNorm2d(384, eps=1e-05, momentum=0.1, affine=True, track_running_stats=True)
      )
      (W_g): Conv(
        (conv): Conv2d(384, 384, kernel_size=(1, 1), stride=(1, 1))
        (bn): BatchNorm2d(384, eps=1e-05, momentum=0.1, affine=True, track_running_stats=True)
      )
      (Avg): AvgPool2d(kernel_size=2, stride=2, padding=0)
      (norm1): LayerNorm()
      (norm2): LayerNorm()
      (chan): Conv(
        (conv): Conv2d(192, 384, kernel_size=(1, 1), stride=(1, 1))
        (relu): ReLU(inplace=True)
        (bn): BatchNorm2d(384, eps=1e-05, momentum=0.1, affine=True, track_running_stats=True)
      )
      (W): Conv(
        (conv): Conv2d(768, 384, kernel_size=(3, 3), stride=(1, 1), padding=(1, 1))
        (relu): ReLU(inplace=True)
        (bn): BatchNorm2d(384, eps=1e-05, momentum=0.1, affine=True, track_running_stats=True)
      )
      (gelu): GELU(approximate='none')
      (residual): Residual(
        (relu): ReLU(inplace=True)
        (bn1): BatchNorm2d(1152, eps=1e-05, momentum=0.1, affine=True, track_running_stats=True)
        (conv1): Conv(
          (conv): Conv2d(1152, 192, kernel_size=(1, 1), stride=(1, 1))
        )
        (bn2): BatchNorm2d(192, eps=1e-05, momentum=0.1, affine=True, track_running_stats=True)
        (conv2): Conv(
          (conv): Conv2d(192, 192, kernel_size=(3, 3), stride=(1, 1), padding=(1, 1))
        )
        (bn3): BatchNorm2d(192, eps=1e-05, momentum=0.1, affine=True, track_running_stats=True)
        (conv3): Conv(
          (conv): Conv2d(192, 384, kernel_size=(1, 1), stride=(1, 1))
        )
        (skip_layer): Conv(
          (conv): Conv2d(1152, 384, kernel_size=(1, 1), stride=(1, 1))
        )
      )
      (dropout): Dropout2d(p=0.2, inplace=False)
      (enhancement): EnhancementModuleLite(
        (channel_att): Sequential(
          (0): AdaptiveAvgPool2d(output_size=1)
          (1): Conv2d(384, 24, kernel_size=(1, 1), stride=(1, 1), bias=False)
          (2): ReLU(inplace=True)
          (3): Conv2d(24, 384, kernel_size=(1, 1), stride=(1, 1), bias=False)
          (4): Sigmoid()
        )
        (spatial_att): Sequential(
          (0): Conv2d(2, 1, kernel_size=(3, 3), stride=(1, 1), padding=(1, 1), bias=False)
          (1): Sigmoid()
        )
      )
    )
    (fu4): MHF_block_v2(
      (att_conv): Sequential(
        (0): Conv2d(1536, 2, kernel_size=(1, 1), stride=(1, 1))
        (1): Sigmoid()
      )
      (maxpool): AdaptiveMaxPool2d(output_size=1)
      (avgpool): AdaptiveAvgPool2d(output_size=1)
      (se): Sequential(
        (0): Conv2d(768, 48, kernel_size=(1, 1), stride=(1, 1), bias=False)
        (1): ReLU()
        (2): Conv2d(48, 768, kernel_size=(1, 1), stride=(1, 1), bias=False)
      )
      (sigmoid): Sigmoid()
      (spatial): Conv(
        (conv): Conv2d(2, 1, kernel_size=(7, 7), stride=(1, 1), padding=(3, 3), bias=False)
        (bn): BatchNorm2d(1, eps=1e-05, momentum=0.1, affine=True, track_running_stats=True)
      )
      (W_x): Conv(
        (conv): Conv2d(768, 768, kernel_size=(1, 1), stride=(1, 1))
        (bn): BatchNorm2d(768, eps=1e-05, momentum=0.1, affine=True, track_running_stats=True)
      )
      (W_g): Conv(
        (conv): Conv2d(768, 768, kernel_size=(1, 1), stride=(1, 1))
        (bn): BatchNorm2d(768, eps=1e-05, momentum=0.1, affine=True, track_running_stats=True)
      )
      (Avg): AvgPool2d(kernel_size=2, stride=2, padding=0)
      (norm1): LayerNorm()
      (norm2): LayerNorm()
      (chan): Conv(
        (conv): Conv2d(384, 768, kernel_size=(1, 1), stride=(1, 1))
        (relu): ReLU(inplace=True)
        (bn): BatchNorm2d(768, eps=1e-05, momentum=0.1, affine=True, track_running_stats=True)
      )
      (W): Conv(
        (conv): Conv2d(1536, 768, kernel_size=(3, 3), stride=(1, 1), padding=(1, 1))
        (relu): ReLU(inplace=True)
        (bn): BatchNorm2d(768, eps=1e-05, momentum=0.1, affine=True, track_running_stats=True)
      )
      (gelu): GELU(approximate='none')
      (residual): Residual(
        (relu): ReLU(inplace=True)
        (bn1): BatchNorm2d(2304, eps=1e-05, momentum=0.1, affine=True, track_running_stats=True)
        (conv1): Conv(
          (conv): Conv2d(2304, 384, kernel_size=(1, 1), stride=(1, 1))
        )
        (bn2): BatchNorm2d(384, eps=1e-05, momentum=0.1, affine=True, track_running_stats=True)
        (conv2): Conv(
          (conv): Conv2d(384, 384, kernel_size=(3, 3), stride=(1, 1), padding=(1, 1))
        )
        (bn3): BatchNorm2d(384, eps=1e-05, momentum=0.1, affine=True, track_running_stats=True)
        (conv3): Conv(
          (conv): Conv2d(384, 768, kernel_size=(1, 1), stride=(1, 1))
        )
        (skip_layer): Conv(
          (conv): Conv2d(2304, 768, kernel_size=(1, 1), stride=(1, 1))
        )
      )
      (dropout): Dropout2d(p=0.2, inplace=False)
      (enhancement): EnhancementModuleLite(
        (channel_att): Sequential(
          (0): AdaptiveAvgPool2d(output_size=1)
          (1): Conv2d(768, 48, kernel_size=(1, 1), stride=(1, 1), bias=False)
          (2): ReLU(inplace=True)
          (3): Conv2d(48, 768, kernel_size=(1, 1), stride=(1, 1), bias=False)
          (4): Sigmoid()
        )
        (spatial_att): Sequential(
          (0): Conv2d(2, 1, kernel_size=(3, 3), stride=(1, 1), padding=(1, 1), bias=False)
          (1): Sigmoid()
        )
      )
    )
  )
  (train_loss_fn): LabelSmoothingCrossEntropy()
  (ema_model): ModelEmaV2(
    (module): main_model_enhanced(
      (downsample_layers): ModuleList(
        (0): Sequential(
          (0): Conv2d(3, 96, kernel_size=(4, 4), stride=(4, 4))
          (1): LayerNorm()
        )
        (1): Sequential(
          (0): LayerNorm()
          (1): Conv2d(96, 192, kernel_size=(2, 2), stride=(2, 2))
        )
        (2): Sequential(
          (0): LayerNorm()
          (1): Conv2d(192, 384, kernel_size=(2, 2), stride=(2, 2))
        )
        (3): Sequential(
          (0): LayerNorm()
          (1): Conv2d(384, 768, kernel_size=(2, 2), stride=(2, 2))
        )
      )
      (stages): ModuleList(
        (0): Sequential(
          (0): Block(
            (dwconv): Conv2d(96, 96, kernel_size=(7, 7), stride=(1, 1), padding=(3, 3), groups=96)
            (norm): LayerNorm()
            (pwconv1): Linear(in_features=96, out_features=384, bias=True)
            (act): GELU(approximate='none')
            (pwconv2): Linear(in_features=384, out_features=96, bias=True)
            (drop_path): Identity()
          )
          (1): Block(
            (dwconv): Conv2d(96, 96, kernel_size=(7, 7), stride=(1, 1), padding=(3, 3), groups=96)
            (norm): LayerNorm()
            (pwconv1): Linear(in_features=96, out_features=384, bias=True)
            (act): GELU(approximate='none')
            (pwconv2): Linear(in_features=384, out_features=96, bias=True)
            (drop_path): Identity()
          )
          (2): Block(
            (dwconv): Conv2d(96, 96, kernel_size=(7, 7), stride=(1, 1), padding=(3, 3), groups=96)
            (norm): LayerNorm()
            (pwconv1): Linear(in_features=96, out_features=384, bias=True)
            (act): GELU(approximate='none')
            (pwconv2): Linear(in_features=384, out_features=96, bias=True)
            (drop_path): Identity()
          )
        )
        (1): Sequential(
          (0): Block(
            (dwconv): Conv2d(192, 192, kernel_size=(7, 7), stride=(1, 1), padding=(3, 3), groups=192)
            (norm): LayerNorm()
            (pwconv1): Linear(in_features=192, out_features=768, bias=True)
            (act): GELU(approximate='none')
            (pwconv2): Linear(in_features=768, out_features=192, bias=True)
            (drop_path): Identity()
          )
          (1): Block(
            (dwconv): Conv2d(192, 192, kernel_size=(7, 7), stride=(1, 1), padding=(3, 3), groups=192)
            (norm): LayerNorm()
            (pwconv1): Linear(in_features=192, out_features=768, bias=True)
            (act): GELU(approximate='none')
            (pwconv2): Linear(in_features=768, out_features=192, bias=True)
            (drop_path): Identity()
          )
          (2): Block(
            (dwconv): Conv2d(192, 192, kernel_size=(7, 7), stride=(1, 1), padding=(3, 3), groups=192)
            (norm): LayerNorm()
            (pwconv1): Linear(in_features=192, out_features=768, bias=True)
            (act): GELU(approximate='none')
            (pwconv2): Linear(in_features=768, out_features=192, bias=True)
            (drop_path): Identity()
          )
        )
        (2): Sequential(
          (0): Block(
            (dwconv): Conv2d(384, 384, kernel_size=(7, 7), stride=(1, 1), padding=(3, 3), groups=384)
            (norm): LayerNorm()
            (pwconv1): Linear(in_features=384, out_features=1536, bias=True)
            (act): GELU(approximate='none')
            (pwconv2): Linear(in_features=1536, out_features=384, bias=True)
            (drop_path): Identity()
          )
          (1): Block(
            (dwconv): Conv2d(384, 384, kernel_size=(7, 7), stride=(1, 1), padding=(3, 3), groups=384)
            (norm): LayerNorm()
            (pwconv1): Linear(in_features=384, out_features=1536, bias=True)
            (act): GELU(approximate='none')
            (pwconv2): Linear(in_features=1536, out_features=384, bias=True)
            (drop_path): Identity()
          )
          (2): Block(
            (dwconv): Conv2d(384, 384, kernel_size=(7, 7), stride=(1, 1), padding=(3, 3), groups=384)
            (norm): LayerNorm()
            (pwconv1): Linear(in_features=384, out_features=1536, bias=True)
            (act): GELU(approximate='none')
            (pwconv2): Linear(in_features=1536, out_features=384, bias=True)
            (drop_path): Identity()
          )
          (3): Block(
            (dwconv): Conv2d(384, 384, kernel_size=(7, 7), stride=(1, 1), padding=(3, 3), groups=384)
            (norm): LayerNorm()
            (pwconv1): Linear(in_features=384, out_features=1536, bias=True)
            (act): GELU(approximate='none')
            (pwconv2): Linear(in_features=1536, out_features=384, bias=True)
            (drop_path): Identity()
          )
          (4): Block(
            (dwconv): Conv2d(384, 384, kernel_size=(7, 7), stride=(1, 1), padding=(3, 3), groups=384)
            (norm): LayerNorm()
            (pwconv1): Linear(in_features=384, out_features=1536, bias=True)
            (act): GELU(approximate='none')
            (pwconv2): Linear(in_features=1536, out_features=384, bias=True)
            (drop_path): Identity()
          )
          (5): Block(
            (dwconv): Conv2d(384, 384, kernel_size=(7, 7), stride=(1, 1), padding=(3, 3), groups=384)
            (norm): LayerNorm()
            (pwconv1): Linear(in_features=384, out_features=1536, bias=True)
            (act): GELU(approximate='none')
            (pwconv2): Linear(in_features=1536, out_features=384, bias=True)
            (drop_path): Identity()
          )
          (6): Block(
            (dwconv): Conv2d(384, 384, kernel_size=(7, 7), stride=(1, 1), padding=(3, 3), groups=384)
            (norm): LayerNorm()
            (pwconv1): Linear(in_features=384, out_features=1536, bias=True)
            (act): GELU(approximate='none')
            (pwconv2): Linear(in_features=1536, out_features=384, bias=True)
            (drop_path): Identity()
          )
          (7): Block(
            (dwconv): Conv2d(384, 384, kernel_size=(7, 7), stride=(1, 1), padding=(3, 3), groups=384)
            (norm): LayerNorm()
            (pwconv1): Linear(in_features=384, out_features=1536, bias=True)
            (act): GELU(approximate='none')
            (pwconv2): Linear(in_features=1536, out_features=384, bias=True)
            (drop_path): Identity()
          )
          (8): Block(
            (dwconv): Conv2d(384, 384, kernel_size=(7, 7), stride=(1, 1), padding=(3, 3), groups=384)
            (norm): LayerNorm()
            (pwconv1): Linear(in_features=384, out_features=1536, bias=True)
            (act): GELU(approximate='none')
            (pwconv2): Linear(in_features=1536, out_features=384, bias=True)
            (drop_path): Identity()
          )
        )
        (3): Sequential(
          (0): Block(
            (dwconv): Conv2d(768, 768, kernel_size=(7, 7), stride=(1, 1), padding=(3, 3), groups=768)
            (norm): LayerNorm()
            (pwconv1): Linear(in_features=768, out_features=3072, bias=True)
            (act): GELU(approximate='none')
            (pwconv2): Linear(in_features=3072, out_features=768, bias=True)
            (drop_path): Identity()
          )
          (1): Block(
            (dwconv): Conv2d(768, 768, kernel_size=(7, 7), stride=(1, 1), padding=(3, 3), groups=768)
            (norm): LayerNorm()
            (pwconv1): Linear(in_features=768, out_features=3072, bias=True)
            (act): GELU(approximate='none')
            (pwconv2): Linear(in_features=3072, out_features=768, bias=True)
            (drop_path): Identity()
          )
          (2): Block(
            (dwconv): Conv2d(768, 768, kernel_size=(7, 7), stride=(1, 1), padding=(3, 3), groups=768)
            (norm): LayerNorm()
            (pwconv1): Linear(in_features=768, out_features=3072, bias=True)
            (act): GELU(approximate='none')
            (pwconv2): Linear(in_features=3072, out_features=768, bias=True)
            (drop_path): Identity()
          )
        )
      )
      (conv_norm): LayerNorm((768,), eps=1e-06, elementwise_affine=True)
      (patch_embed): PatchEmbed(
        (proj): Conv2d(3, 96, kernel_size=(4, 4), stride=(4, 4))
        (norm): LayerNorm((96,), eps=1e-05, elementwise_affine=True)
      )
      (pos_drop): Dropout(p=0, inplace=False)
      (meta_tokenlize): PatchEmbed(
        (proj): Conv2d(96, 768, kernel_size=(16, 16), stride=(16, 16))
        (norm): Identity()
      )
      (layers1): BasicLayer(
        (blocks): ModuleList(
          (0): SwinTransformerBlock(
            (norm1): LayerNorm((96,), eps=1e-05, elementwise_affine=True)
            (attn): WindowAttention(
              (qkv): Linear(in_features=96, out_features=288, bias=True)
              (attn_drop): Dropout(p=0, inplace=False)
              (proj): Linear(in_features=96, out_features=96, bias=True)
              (proj_drop): Dropout(p=0, inplace=False)
              (softmax): Softmax(dim=-1)
            )
            (drop_path): Identity()
            (norm2): LayerNorm((96,), eps=1e-05, elementwise_affine=True)
            (mlp): Mlp(
              (fc1): Linear(in_features=96, out_features=384, bias=True)
              (act): GELU(approximate='none')
              (drop1): Dropout(p=0, inplace=False)
              (fc2): Linear(in_features=384, out_features=96, bias=True)
              (drop2): Dropout(p=0, inplace=False)
            )
          )
          (1): SwinTransformerBlock(
            (norm1): LayerNorm((96,), eps=1e-05, elementwise_affine=True)
            (attn): WindowAttention(
              (qkv): Linear(in_features=96, out_features=288, bias=True)
              (attn_drop): Dropout(p=0, inplace=False)
              (proj): Linear(in_features=96, out_features=96, bias=True)
              (proj_drop): Dropout(p=0, inplace=False)
              (softmax): Softmax(dim=-1)
            )
            (drop_path): DropPath()
            (norm2): LayerNorm((96,), eps=1e-05, elementwise_affine=True)
            (mlp): Mlp(
              (fc1): Linear(in_features=96, out_features=384, bias=True)
              (act): GELU(approximate='none')
              (drop1): Dropout(p=0, inplace=False)
              (fc2): Linear(in_features=384, out_features=96, bias=True)
              (drop2): Dropout(p=0, inplace=False)
            )
          )
        )
      )
      (layers2): BasicLayer(
        (blocks): ModuleList(
          (0-1): 2 x SwinTransformerBlock(
            (norm1): LayerNorm((192,), eps=1e-05, elementwise_affine=True)
            (attn): WindowAttention(
              (qkv): Linear(in_features=192, out_features=576, bias=True)
              (attn_drop): Dropout(p=0, inplace=False)
              (proj): Linear(in_features=192, out_features=192, bias=True)
              (proj_drop): Dropout(p=0, inplace=False)
              (softmax): Softmax(dim=-1)
            )
            (drop_path): DropPath()
            (norm2): LayerNorm((192,), eps=1e-05, elementwise_affine=True)
            (mlp): Mlp(
              (fc1): Linear(in_features=192, out_features=768, bias=True)
              (act): GELU(approximate='none')
              (drop1): Dropout(p=0, inplace=False)
              (fc2): Linear(in_features=768, out_features=192, bias=True)
              (drop2): Dropout(p=0, inplace=False)
            )
          )
        )
        (downsample): PatchMerging(
          (reduction): Linear(in_features=384, out_features=192, bias=False)
          (norm): LayerNorm((384,), eps=1e-05, elementwise_affine=True)
        )
      )
      (layers3): BasicLayer(
        (blocks): ModuleList(
          (0-5): 6 x SwinTransformerBlock(
            (norm1): LayerNorm((384,), eps=1e-05, elementwise_affine=True)
            (attn): WindowAttention(
              (qkv): Linear(in_features=384, out_features=1152, bias=True)
              (attn_drop): Dropout(p=0, inplace=False)
              (proj): Linear(in_features=384, out_features=384, bias=True)
              (proj_drop): Dropout(p=0, inplace=False)
              (softmax): Softmax(dim=-1)
            )
            (drop_path): DropPath()
            (norm2): LayerNorm((384,), eps=1e-05, elementwise_affine=True)
            (mlp): Mlp(
              (fc1): Linear(in_features=384, out_features=1536, bias=True)
              (act): GELU(approximate='none')
              (drop1): Dropout(p=0, inplace=False)
              (fc2): Linear(in_features=1536, out_features=384, bias=True)
              (drop2): Dropout(p=0, inplace=False)
            )
          )
        )
        (downsample): PatchMerging(
          (reduction): Linear(in_features=768, out_features=384, bias=False)
          (norm): LayerNorm((768,), eps=1e-05, elementwise_affine=True)
        )
      )
      (layers4): BasicLayer(
        (blocks): ModuleList(
          (0-1): 2 x SwinTransformerBlock(
            (norm1): LayerNorm((768,), eps=1e-05, elementwise_affine=True)
            (attn): WindowAttention(
              (qkv): Linear(in_features=768, out_features=2304, bias=True)
              (attn_drop): Dropout(p=0, inplace=False)
              (proj): Linear(in_features=768, out_features=768, bias=True)
              (proj_drop): Dropout(p=0, inplace=False)
              (softmax): Softmax(dim=-1)
            )
            (drop_path): DropPath()
            (norm2): LayerNorm((768,), eps=1e-05, elementwise_affine=True)
            (mlp): Mlp(
              (fc1): Linear(in_features=768, out_features=3072, bias=True)
              (act): GELU(approximate='none')
              (drop1): Dropout(p=0, inplace=False)
              (fc2): Linear(in_features=3072, out_features=768, bias=True)
              (drop2): Dropout(p=0, inplace=False)
            )
          )
        )
        (downsample): PatchMerging(
          (reduction): Linear(in_features=1536, out_features=768, bias=False)
          (norm): LayerNorm((1536,), eps=1e-05, elementwise_affine=True)
        )
      )
      (norm): LayerNorm((768,), eps=1e-05, elementwise_affine=True)
      (avgpool): AdaptiveAvgPool1d(output_size=1)
      (head): HeadOptimal(
        (proj): Sequential(
          (0): Linear(in_features=768, out_features=768, bias=True)
          (1): LayerNorm((768,), eps=1e-05, elementwise_affine=True)
          (2): Dropout(p=0.1, inplace=False)
        )
        (proto_manager): DynamicPrototypeManagerOptimal()
        (mixed_attn): MixedAttentionBlockOptimal(
          (cross_attn): MultiheadAttention(
            (out_proj): NonDynamicallyQuantizableLinear(in_features=768, out_features=768, bias=True)
          )
          (self_attn): MultiheadAttention(
            (out_proj): NonDynamicallyQuantizableLinear(in_features=768, out_features=768, bias=True)
          )
          (light_attn): MultiheadAttention(
            (out_proj): NonDynamicallyQuantizableLinear(in_features=768, out_features=768, bias=True)
          )
          (norm1): LayerNorm((768,), eps=1e-05, elementwise_affine=True)
          (norm2): LayerNorm((768,), eps=1e-05, elementwise_affine=True)
          (norm3): LayerNorm((768,), eps=1e-05, elementwise_affine=True)
          (dropout): Dropout(p=0.1, inplace=False)
          (gate): Sequential(
            (0): Linear(in_features=2304, out_features=768, bias=True)
            (1): GELU(approximate='none')
            (2): Linear(in_features=768, out_features=3, bias=True)
          )
        )
        (ffn): Sequential(
          (0): Linear(in_features=768, out_features=3072, bias=True)
          (1): GELU(approximate='none')
          (2): Dropout(p=0.1, inplace=False)
          (3): Linear(in_features=3072, out_features=768, bias=True)
          (4): Dropout(p=0.1, inplace=False)
        )
        (ffn_norm): LayerNorm((768,), eps=1e-05, elementwise_affine=True)
        (proto_loss_fn): OptimalPrototypeLoss()
      )
      (fu1): MHF_block_v2(
        (att_conv): Sequential(
          (0): Conv2d(192, 2, kernel_size=(1, 1), stride=(1, 1))
          (1): Sigmoid()
        )
        (maxpool): AdaptiveMaxPool2d(output_size=1)
        (avgpool): AdaptiveAvgPool2d(output_size=1)
        (se): Sequential(
          (0): Conv2d(96, 6, kernel_size=(1, 1), stride=(1, 1), bias=False)
          (1): ReLU()
          (2): Conv2d(6, 96, kernel_size=(1, 1), stride=(1, 1), bias=False)
        )
        (sigmoid): Sigmoid()
        (spatial): Conv(
          (conv): Conv2d(2, 1, kernel_size=(7, 7), stride=(1, 1), padding=(3, 3), bias=False)
          (bn): BatchNorm2d(1, eps=1e-05, momentum=0.1, affine=True, track_running_stats=True)
        )
        (W_x): Conv(
          (conv): Conv2d(96, 96, kernel_size=(1, 1), stride=(1, 1))
          (bn): BatchNorm2d(96, eps=1e-05, momentum=0.1, affine=True, track_running_stats=True)
        )
        (W_g): Conv(
          (conv): Conv2d(96, 96, kernel_size=(1, 1), stride=(1, 1))
          (bn): BatchNorm2d(96, eps=1e-05, momentum=0.1, affine=True, track_running_stats=True)
        )
        (Avg): AvgPool2d(kernel_size=2, stride=2, padding=0)
        (norm1): LayerNorm()
        (norm2): LayerNorm()
        (chan): Conv(
          (conv): Conv2d(48, 96, kernel_size=(1, 1), stride=(1, 1))
          (relu): ReLU(inplace=True)
          (bn): BatchNorm2d(96, eps=1e-05, momentum=0.1, affine=True, track_running_stats=True)
        )
        (W): Conv(
          (conv): Conv2d(192, 96, kernel_size=(3, 3), stride=(1, 1), padding=(1, 1))
          (relu): ReLU(inplace=True)
          (bn): BatchNorm2d(96, eps=1e-05, momentum=0.1, affine=True, track_running_stats=True)
        )
        (gelu): GELU(approximate='none')
        (residual): Residual(
          (relu): ReLU(inplace=True)
          (bn1): BatchNorm2d(288, eps=1e-05, momentum=0.1, affine=True, track_running_stats=True)
          (conv1): Conv(
            (conv): Conv2d(288, 48, kernel_size=(1, 1), stride=(1, 1))
          )
          (bn2): BatchNorm2d(48, eps=1e-05, momentum=0.1, affine=True, track_running_stats=True)
          (conv2): Conv(
            (conv): Conv2d(48, 48, kernel_size=(3, 3), stride=(1, 1), padding=(1, 1))
          )
          (bn3): BatchNorm2d(48, eps=1e-05, momentum=0.1, affine=True, track_running_stats=True)
          (conv3): Conv(
            (conv): Conv2d(48, 96, kernel_size=(1, 1), stride=(1, 1))
          )
          (skip_layer): Conv(
            (conv): Conv2d(288, 96, kernel_size=(1, 1), stride=(1, 1))
          )
        )
        (dropout): Dropout2d(p=0.0, inplace=False)
        (enhancement): EnhancementModuleLite(
          (channel_att): Sequential(
            (0): AdaptiveAvgPool2d(output_size=1)
            (1): Conv2d(96, 8, kernel_size=(1, 1), stride=(1, 1), bias=False)
            (2): ReLU(inplace=True)
            (3): Conv2d(8, 96, kernel_size=(1, 1), stride=(1, 1), bias=False)
            (4): Sigmoid()
          )
          (spatial_att): Sequential(
            (0): Conv2d(2, 1, kernel_size=(3, 3), stride=(1, 1), padding=(1, 1), bias=False)
            (1): Sigmoid()
          )
        )
      )
      (fu2): MHF_block_v2(
        (att_conv): Sequential(
          (0): Conv2d(384, 2, kernel_size=(1, 1), stride=(1, 1))
          (1): Sigmoid()
        )
        (maxpool): AdaptiveMaxPool2d(output_size=1)
        (avgpool): AdaptiveAvgPool2d(output_size=1)
        (se): Sequential(
          (0): Conv2d(192, 12, kernel_size=(1, 1), stride=(1, 1), bias=False)
          (1): ReLU()
          (2): Conv2d(12, 192, kernel_size=(1, 1), stride=(1, 1), bias=False)
        )
        (sigmoid): Sigmoid()
        (spatial): Conv(
          (conv): Conv2d(2, 1, kernel_size=(7, 7), stride=(1, 1), padding=(3, 3), bias=False)
          (bn): BatchNorm2d(1, eps=1e-05, momentum=0.1, affine=True, track_running_stats=True)
        )
        (W_x): Conv(
          (conv): Conv2d(192, 192, kernel_size=(1, 1), stride=(1, 1))
          (bn): BatchNorm2d(192, eps=1e-05, momentum=0.1, affine=True, track_running_stats=True)
        )
        (W_g): Conv(
          (conv): Conv2d(192, 192, kernel_size=(1, 1), stride=(1, 1))
          (bn): BatchNorm2d(192, eps=1e-05, momentum=0.1, affine=True, track_running_stats=True)
        )
        (Avg): AvgPool2d(kernel_size=2, stride=2, padding=0)
        (norm1): LayerNorm()
        (norm2): LayerNorm()
        (chan): Conv(
          (conv): Conv2d(96, 192, kernel_size=(1, 1), stride=(1, 1))
          (relu): ReLU(inplace=True)
          (bn): BatchNorm2d(192, eps=1e-05, momentum=0.1, affine=True, track_running_stats=True)
        )
        (W): Conv(
          (conv): Conv2d(384, 192, kernel_size=(3, 3), stride=(1, 1), padding=(1, 1))
          (relu): ReLU(inplace=True)
          (bn): BatchNorm2d(192, eps=1e-05, momentum=0.1, affine=True, track_running_stats=True)
        )
        (gelu): GELU(approximate='none')
        (residual): Residual(
          (relu): ReLU(inplace=True)
          (bn1): BatchNorm2d(576, eps=1e-05, momentum=0.1, affine=True, track_running_stats=True)
          (conv1): Conv(
            (conv): Conv2d(576, 96, kernel_size=(1, 1), stride=(1, 1))
          )
          (bn2): BatchNorm2d(96, eps=1e-05, momentum=0.1, affine=True, track_running_stats=True)
          (conv2): Conv(
            (conv): Conv2d(96, 96, kernel_size=(3, 3), stride=(1, 1), padding=(1, 1))
          )
          (bn3): BatchNorm2d(96, eps=1e-05, momentum=0.1, affine=True, track_running_stats=True)
          (conv3): Conv(
            (conv): Conv2d(96, 192, kernel_size=(1, 1), stride=(1, 1))
          )
          (skip_layer): Conv(
            (conv): Conv2d(576, 192, kernel_size=(1, 1), stride=(1, 1))
          )
        )
        (dropout): Dropout2d(p=0.1, inplace=False)
        (enhancement): EnhancementModuleLite(
          (channel_att): Sequential(
            (0): AdaptiveAvgPool2d(output_size=1)
            (1): Conv2d(192, 12, kernel_size=(1, 1), stride=(1, 1), bias=False)
            (2): ReLU(inplace=True)
            (3): Conv2d(12, 192, kernel_size=(1, 1), stride=(1, 1), bias=False)
            (4): Sigmoid()
          )
          (spatial_att): Sequential(
            (0): Conv2d(2, 1, kernel_size=(3, 3), stride=(1, 1), padding=(1, 1), bias=False)
            (1): Sigmoid()
          )
        )
      )
      (fu3): MHF_block_v2(
        (att_conv): Sequential(
          (0): Conv2d(768, 2, kernel_size=(1, 1), stride=(1, 1))
          (1): Sigmoid()
        )
        (maxpool): AdaptiveMaxPool2d(output_size=1)
        (avgpool): AdaptiveAvgPool2d(output_size=1)
        (se): Sequential(
          (0): Conv2d(384, 24, kernel_size=(1, 1), stride=(1, 1), bias=False)
          (1): ReLU()
          (2): Conv2d(24, 384, kernel_size=(1, 1), stride=(1, 1), bias=False)
        )
        (sigmoid): Sigmoid()
        (spatial): Conv(
          (conv): Conv2d(2, 1, kernel_size=(7, 7), stride=(1, 1), padding=(3, 3), bias=False)
          (bn): BatchNorm2d(1, eps=1e-05, momentum=0.1, affine=True, track_running_stats=True)
        )
        (W_x): Conv(
          (conv): Conv2d(384, 384, kernel_size=(1, 1), stride=(1, 1))
          (bn): BatchNorm2d(384, eps=1e-05, momentum=0.1, affine=True, track_running_stats=True)
        )
        (W_g): Conv(
          (conv): Conv2d(384, 384, kernel_size=(1, 1), stride=(1, 1))
          (bn): BatchNorm2d(384, eps=1e-05, momentum=0.1, affine=True, track_running_stats=True)
        )
        (Avg): AvgPool2d(kernel_size=2, stride=2, padding=0)
        (norm1): LayerNorm()
        (norm2): LayerNorm()
        (chan): Conv(
          (conv): Conv2d(192, 384, kernel_size=(1, 1), stride=(1, 1))
          (relu): ReLU(inplace=True)
          (bn): BatchNorm2d(384, eps=1e-05, momentum=0.1, affine=True, track_running_stats=True)
        )
        (W): Conv(
          (conv): Conv2d(768, 384, kernel_size=(3, 3), stride=(1, 1), padding=(1, 1))
          (relu): ReLU(inplace=True)
          (bn): BatchNorm2d(384, eps=1e-05, momentum=0.1, affine=True, track_running_stats=True)
        )
        (gelu): GELU(approximate='none')
        (residual): Residual(
          (relu): ReLU(inplace=True)
          (bn1): BatchNorm2d(1152, eps=1e-05, momentum=0.1, affine=True, track_running_stats=True)
          (conv1): Conv(
            (conv): Conv2d(1152, 192, kernel_size=(1, 1), stride=(1, 1))
          )
          (bn2): BatchNorm2d(192, eps=1e-05, momentum=0.1, affine=True, track_running_stats=True)
          (conv2): Conv(
            (conv): Conv2d(192, 192, kernel_size=(3, 3), stride=(1, 1), padding=(1, 1))
          )
          (bn3): BatchNorm2d(192, eps=1e-05, momentum=0.1, affine=True, track_running_stats=True)
          (conv3): Conv(
            (conv): Conv2d(192, 384, kernel_size=(1, 1), stride=(1, 1))
          )
          (skip_layer): Conv(
            (conv): Conv2d(1152, 384, kernel_size=(1, 1), stride=(1, 1))
          )
        )
        (dropout): Dropout2d(p=0.2, inplace=False)
        (enhancement): EnhancementModuleLite(
          (channel_att): Sequential(
            (0): AdaptiveAvgPool2d(output_size=1)
            (1): Conv2d(384, 24, kernel_size=(1, 1), stride=(1, 1), bias=False)
            (2): ReLU(inplace=True)
            (3): Conv2d(24, 384, kernel_size=(1, 1), stride=(1, 1), bias=False)
            (4): Sigmoid()
          )
          (spatial_att): Sequential(
            (0): Conv2d(2, 1, kernel_size=(3, 3), stride=(1, 1), padding=(1, 1), bias=False)
            (1): Sigmoid()
          )
        )
      )
      (fu4): MHF_block_v2(
        (att_conv): Sequential(
          (0): Conv2d(1536, 2, kernel_size=(1, 1), stride=(1, 1))
          (1): Sigmoid()
        )
        (maxpool): AdaptiveMaxPool2d(output_size=1)
        (avgpool): AdaptiveAvgPool2d(output_size=1)
        (se): Sequential(
          (0): Conv2d(768, 48, kernel_size=(1, 1), stride=(1, 1), bias=False)
          (1): ReLU()
          (2): Conv2d(48, 768, kernel_size=(1, 1), stride=(1, 1), bias=False)
        )
        (sigmoid): Sigmoid()
        (spatial): Conv(
          (conv): Conv2d(2, 1, kernel_size=(7, 7), stride=(1, 1), padding=(3, 3), bias=False)
          (bn): BatchNorm2d(1, eps=1e-05, momentum=0.1, affine=True, track_running_stats=True)
        )
        (W_x): Conv(
          (conv): Conv2d(768, 768, kernel_size=(1, 1), stride=(1, 1))
          (bn): BatchNorm2d(768, eps=1e-05, momentum=0.1, affine=True, track_running_stats=True)
        )
        (W_g): Conv(
          (conv): Conv2d(768, 768, kernel_size=(1, 1), stride=(1, 1))
          (bn): BatchNorm2d(768, eps=1e-05, momentum=0.1, affine=True, track_running_stats=True)
        )
        (Avg): AvgPool2d(kernel_size=2, stride=2, padding=0)
        (norm1): LayerNorm()
        (norm2): LayerNorm()
        (chan): Conv(
          (conv): Conv2d(384, 768, kernel_size=(1, 1), stride=(1, 1))
          (relu): ReLU(inplace=True)
          (bn): BatchNorm2d(768, eps=1e-05, momentum=0.1, affine=True, track_running_stats=True)
        )
        (W): Conv(
          (conv): Conv2d(1536, 768, kernel_size=(3, 3), stride=(1, 1), padding=(1, 1))
          (relu): ReLU(inplace=True)
          (bn): BatchNorm2d(768, eps=1e-05, momentum=0.1, affine=True, track_running_stats=True)
        )
        (gelu): GELU(approximate='none')
        (residual): Residual(
          (relu): ReLU(inplace=True)
          (bn1): BatchNorm2d(2304, eps=1e-05, momentum=0.1, affine=True, track_running_stats=True)
          (conv1): Conv(
            (conv): Conv2d(2304, 384, kernel_size=(1, 1), stride=(1, 1))
          )
          (bn2): BatchNorm2d(384, eps=1e-05, momentum=0.1, affine=True, track_running_stats=True)
          (conv2): Conv(
            (conv): Conv2d(384, 384, kernel_size=(3, 3), stride=(1, 1), padding=(1, 1))
          )
          (bn3): BatchNorm2d(384, eps=1e-05, momentum=0.1, affine=True, track_running_stats=True)
          (conv3): Conv(
            (conv): Conv2d(384, 768, kernel_size=(1, 1), stride=(1, 1))
          )
          (skip_layer): Conv(
            (conv): Conv2d(2304, 768, kernel_size=(1, 1), stride=(1, 1))
          )
        )
        (dropout): Dropout2d(p=0.2, inplace=False)
        (enhancement): EnhancementModuleLite(
          (channel_att): Sequential(
            (0): AdaptiveAvgPool2d(output_size=1)
            (1): Conv2d(768, 48, kernel_size=(1, 1), stride=(1, 1), bias=False)
            (2): ReLU(inplace=True)
            (3): Conv2d(48, 768, kernel_size=(1, 1), stride=(1, 1), bias=False)
            (4): Sigmoid()
          )
          (spatial_att): Sequential(
            (0): Conv2d(2, 1, kernel_size=(3, 3), stride=(1, 1), padding=(1, 1), bias=False)
            (1): Sigmoid()
          )
        )
      )
    )
  )
)
2026-01-26 04:47:41.856 | INFO     | projects.eval_tools.finetuning_mae_exp:get_optimizer:141 - Using differential learning rates:
2026-01-26 04:47:41.856 | INFO     | projects.eval_tools.finetuning_mae_exp:get_optimizer:142 -   backbone: 0.05x, mhf: 0.2x, enhancement: 3.0x, head: 2.0x
…
